…
2020-09-17 15:54:20.107321: I tensorflow/stream_executor/platform/default/dso_loader.cc:44] Successfully opened dynamic library libcudnn.so.7
2020-09-17 15:54:21.770969: W tensorflow/stream_executor/cuda/redzone_allocator.cc:312] Not found: ./bin/ptxas not found
Relying on driver to perform ptx compilation. This message will be only logged once.
2020-09-17 15:54:21.798566: I tensorflow/stream_executor/platform/default/dso_loader.cc:44] Successfully opened dynamic library libcublas.so.10.0
Model: "model_1"
_________________________________________________________________
Layer (type)                 Output Shape              Param #   
=================================================================
input_1 (InputLayer)         (None, 80, 60, 3)         0         
_________________________________________________________________
conv2d_1 (Conv2D)            (None, 80, 60, 8)         1184      
_________________________________________________________________
max_pooling2d_1 (MaxPooling2 (None, 40, 20, 8)         0         
_________________________________________________________________
conv2d_2 (Conv2D)            (None, 40, 20, 32)        12576     
_________________________________________________________________
max_pooling2d_2 (MaxPooling2 (None, 20, 10, 32)        0         
_________________________________________________________________
conv2d_3 (Conv2D)            (None, 20, 10, 64)        51264     
_________________________________________________________________
max_pooling2d_3 (MaxPooling2 (None, 10, 5, 64)         0         
_________________________________________________________________
conv2d_4 (Conv2D)            (None, 10, 5, 64)         102464    
_________________________________________________________________
up_sampling2d_1 (UpSampling2 (None, 20, 10, 64)        0         
_________________________________________________________________
conv2d_5 (Conv2D)            (None, 20, 10, 32)        100384    
_________________________________________________________________
up_sampling2d_2 (UpSampling2 (None, 40, 20, 32)        0         
_________________________________________________________________
conv2d_6 (Conv2D)            (None, 40, 20, 8)         12552     
_________________________________________________________________
up_sampling2d_3 (UpSampling2 (None, 80, 60, 8)         0         
_________________________________________________________________
conv2d_7 (Conv2D)            (None, 80, 60, 1)         393       
=================================================================
Total params: 280,817
Trainable params: 280,817
Non-trainable params: 0
_________________________________________________________________
